autoencoder.pth (torch, 397360 bytes, 4 tensors)

encoder.weight f4 [128, 384]
0	0xbc04cd40	-0.008105576
1	0xbd07f1ef	-0.03318971
2	0x3c91a400	0.017778397
3	0x3c9de9ea	0.019276578
4	0x3c855bb2	0.016279075
5	0x3b615782	0.0034384434
6	0xbd8ec138	-0.06970447
7	0xbcd45ca4	-0.02592308
8	0x3d9fe8ac	0.078080505
9	0xbceac9da	-0.028660703
10	0xbd22a8d5	-0.039711792
11	0x3d6dec15	0.058086473
12	0xbc2003d2	-0.009766536
13	0xbb681fec	-0.0035419418
14	0x3d4d1bb4	0.050075248
15	0xbc5f4fdc	-0.01362988
16	0xbca7c5b5	-0.020480016
17	0x3c80af35	0.015708545
18	0xbd16b4c2	-0.036793478
19	0xbd55ac0d	-0.052166034
20	0x3cb6c59f	0.02231103
21	0xbd33e128	-0.043915898
22	0xbbd479b7	-0.006484236
23	0xbc8b159d	-0.01697808
24	0xbd591b09	-0.0530043
25	0xbc7cf6ab	-0.01543967
26	0x3d7ac7b2	0.0612256
27	0x3d361b34	0.044459537
28	0xbdc2e8dc	-0.09517071
29	0xbca1d059	-0.019752668
30	0x3cbf3cf4	0.023344494
31	0xbd228dc2	-0.039685972
32	0xbddc623d	-0.10760925
33	0xbda870e0	-0.08224654
34	0xbd6c2962	-0.057656653
35	0xbb9918f3	-0.0046721636
36	0x3c461c35	0.012091686
37	0xbc5a1016	-0.013309499
38	0x3d758375	0.05993982
39	0x3cfbb15e	0.030724224
40	0x3cdeeef8	0.027213559
41	0xbdd76e4c	-0.10519084
42	0x3973a6df	0.0002323645
43	0xbdee0ba0	-0.11623311
44	0x3b9cd19c	0.0047857296
45	0x3d2441a0	0.040101647
46	0x3cba8c46	0.022771966
47	0xbc798e48	-0.015231676
48	0xbd2a8cc1	-0.04163814
49	0xbcb678b0	-0.022274345
50	0x3c90bd45	0.017668376
51	0xbcc456b9	-0.023967134
52	0x3d10574a	0.035239495
53	0xbd9aaae3	-0.07552125
54	0x3d05b50d	0.032643367
55	0x3d2a768d	0.041616965
56	0xbc02874d	-0.0079668285
57	0x3d3043e7	0.043033507
58	0x3c956322	0.018235747
59	0xbe0ac0d9	-0.13550128
60	0x3d4e63fc	0.05038832
61	0x390621dd	0.00012791851
62	0xbd2f4449	-0.04278973
63	0x3c0a63a0	0.008446604
64	0x3d955440	0.0729146
65	0x3d6f5783	0.058433067
66	0xbc300081	-0.010742308
67	0x3dd1fd02	0.102533355
68	0xbd59edea	-0.05320541
69	0x3d23d1f0	0.039995134
70	0x3d56c680	0.052435398
71	0x3a9ed7dd	0.0012118776
72	0x3da42bc2	0.08016159
73	0x3c609e0f	0.013709559
74	0x3caff2a1	0.021478
75	0xbcd92070	-0.026504725
76	0xbd68166b	-0.056662004
77	0xbd283220	-0.041063428
78	0xbd14bab6	-0.036310874
79	0xbb546bb1	-0.0032412822
80	0x3cd8183a	0.02637874
81	0xbcdedb6a	-0.027204234
82	0xbda6a451	-0.081368096
83	0x3d10110d	0.03517251
84	0xbd5b390a	-0.053521194
85	0xbc3dc0c0	-0.0115816
86	0x3bf9ba39	0.0076210764
87	0xbbee310a	-0.0072690295
88	0xbd1881e3	-0.037233245
89	0xbd298712	-0.04138858
90	0xbd940df1	-0.072292216
91	0xbd316d84	-0.043317333
92	0x3d32d24c	0.043657586
93	0x3d1d87b4	0.038459495
94	0xbbc12fa1	-0.0058955704
95	0x3d098781	0.033576492
96	0xbd032b0d	-0.03202348
97	0x3cf2cc3f	0.029638408
98	0xbca31114	-0.019905604
99	0xbc1bfeb7	-0.009521178
100	0xbc453081	-0.01203549
101	0x3d441cad	0.04787891
102	0xbd04eb78	-0.032451123
103	0xbdae890d	-0.08522234
104	0x3d4cf630	0.05003947
105	0xbca2dc62	-0.019880477
106	0xbd465d3e	-0.048428766
107	0x3d2d0659	0.04224238
108	0x3dc2dca8	0.09514743
109	0xbc940333	-0.018067932
110	0xbc1938ea	-0.009351948
111	0xbd29ff1f	-0.041503068
112	0xbd68ed1b	-0.056866746
113	0xbd880206	-0.06641011
114	0xbbe88f46	-0.0070971576
115	0xbcd588c7	-0.026066197
116	0xbd79dc76	-0.061001264
117	0x3cff66c9	0.031176941
118	0x3b299a76	0.002587942
119	0x3cd4a399	0.025956916
120	0x3d80981e	0.06279014
121	0x3d0261cb	0.031831544
122	0x3c299fd5	0.010353048
123	0x3d960db3	0.07326832
124	0x3e1c9b61	0.15293647
125	0x3d44fb5d	0.04809128
126	0x3dc91226	0.09817915
127	0x3c8a5de0	0.016890466
128	0xbb4d886b	-0.003136183
129	0x3c621207	0.013798243
130	0x3bae1ceb	0.005313506
131	0x3d16a238	0.036775798
132	0x3db6d2f1	0.08926953
133	0x3da162dc	0.07880184
134	0xbcca0f87	-0.024665607
135	0xbd518685	-0.05115368
136	0xbd6761da	-0.056489803
137	0x3d67273c	0.0564339
138	0xbd6cfcca	-0.057858266
139	0x3da0d378	0.078528345
140	0xbd13146f	-0.03590816
141	0x3d4aa4c8	0.049473554
142	0x3ca6071a	0.020267058
143	0xbc50defc	-0.012748476
144	0xbd534056	-0.051575027
145	0xbd4e6772	-0.050391622
146	0x3cf51280	0.029916048
147	0x3d5a5288	0.053301364
148	0x3cd7ed37	0.02635823
149	0xbd4ed775	-0.050498445
150	0xbcf52b25	-0.0299278
151	0x3da36002	0.079772964
152	0x3d053e86	0.03253033
153	0xbbcf7e4c	-0.0063321944
154	0x3dc17dd5	0.09447829
155	0x3cb9f3a2	0.022699181
156	0xbd1afed9	-0.037840698
157	0x3ca7bcf2	0.020475838
158	0x3cff3de9	0.03115745
159	0x3d32266e	0.04349368
160	0xbd7301c4	-0.059327856
161	0xbd0f5426	-0.03499236
162	0x3d29a62f	0.04141825
163	0xbcf93551	-0.030420931
164	0xbd08eb70	-0.033427656
165	0xbcf3bac1	-0.029752137
166	0xbbcfdf7a	-0.006343779
167	0xbc8605ab	-0.016360125
168	0xbd56d2c8	-0.05244711
169	0xbd050f5c	-0.03248535
170	0xbd1fbb46	-0.038996957
171	0x3bca02b4	0.006164873
172	0x3c92b027	0.017906262
173	0xbd864d02	-0.06557657
174	0x3cb68837	0.02228175
175	0xbc81ca8b	-0.01584365
176	0xbc59b480	-0.013287663
177	0xbd4029ed	-0.046914984
178	0x3b094348	0.0020944644
179	0xbd73a7ac	-0.059486076
180	0xbbf51965	-0.007479834
181	0xba433a41	-0.000744734
182	0x3c7ea8e1	0.015543194
183	0xbd9f18b9	-0.07768387
184	0xbc9664a0	-0.018358529
185	0x3c461c0c	0.012091648
186	0x3cb05962	0.021526996
187	0xbd1cfcbc	-0.038326964
188	0x3d672f64	0.05644168
189	0xbc110752	-0.008851843
190	0x3c9502cc	0.01818981
191	0xbcd24109	-0.025665777
192	0x3cd3cd26	0.025854658
193	0x3dd14e0f	0.102199666
194	0x3bb1ba4b	0.005423819
195	0x3d6f4434	0.058414653
196	0x3ac3a27e	0.0014925746
197	0xbcce700e	-0.025199916
198	0xbc49dddb	-0.012320961
199	0x3c9305b7	0.017947061
200	0x3d260fb5	0.040542323
201	0x3c351904	0.0110533275
202	0xbcafa2b8	-0.021439895
203	0x3d0d4dfb	0.034498196
204	0x3d651bbf	0.055934664
205	0x3cd5bd46	0.02609123
206	0x3d4f6fdd	0.05064379
207	0xbbd57107	-0.006513718
208	0xbd22a68f	-0.039709624
209	0xbd5ff38a	-0.054675616
210	0x3de7678e	0.11299048
211	0xbd0d8e0c	-0.034559295
212	0x3bc4a263	0.0060008033
213	0xbd3d3dad	-0.046201397
214	0xbd825515	-0.06363884
215	0xbcf051e5	-0.029335925
216	0xbd51d4ca	-0.051228322
217	0x3ac56613	0.0015060328
218	0xbc830934	-0.0159956
219	0x3d7b1d1a	0.06130705
220	0x3b969e97	0.004596542
221	0x3d323b62	0.043513663
222	0xbcd70fe1	-0.026252689
223	0xbcc5e8d4	-0.024158873
224	0xbccd34c6	-0.025049578
225	0x3ca605b6	0.020266395
226	0xbd7854ed	-0.060627867
227	0x3c8d94e8	0.017282918
228	0x3c9f9c2a	0.019483645
229	0xbd3c0354	-0.04590161
230	0xbd8cd8f7	-0.0687732
231	0xbd1c7712	-0.03819949
232	0x3bbed46c	0.0058236625
233	0xbce21a00	-0.027600288
234	0x3c2b40b3	0.010452437
235	0xbd76b75e	-0.060233466
236	0x3d4a6140	0.04940915
237	0x3d7099d1	0.05874044
238	0xbc713f9a	-0.014724636
239	0xbc41df99	-0.011833095
240	0xbb518497	-0.00319699
241	0xbd87519a	-0.06607361
242	0xbd6b14b6	-0.0573928
243	0xbdbbe61d	-0.0917475
244	0xbc8584e1	-0.016298713
245	0xbc747628	-0.014920749
246	0xbcd8c8ae	-0.026462879
247	0xbd051cc1	-0.032498125
248	0x3d2d6751	0.04233486
249	0x3b092426	0.0020926087
250	0xbc1ef4c5	-0.009701912
251	0xbbb4ddb4	-0.005519593
252	0x3c7aea49	0.015314647
253	0x3ca20474	0.019777514
254	0x3d90aebb	0.07064577
255	0xbc4c2895	-0.012460847

encoder.bias f4 [128]
0	0x3da0a1a8	0.078433335
1	0x3cc862ee	0.024461236
2	0x3d0832ad	0.033251453
3	0x3d998278	0.07495588
4	0x3c91aebf	0.01778352
5	0x3c1585ac	0.009126108
6	0x3d5b371c	0.053519353
7	0x3cbb4f71	0.022865029
8	0x3d29040f	0.041263636
9	0x3ccd26cc	0.025042914
10	0x3cd8a59a	0.026446152
11	0x3ce5f6d9	0.028071808
12	0x3ca8d186	0.020607721
13	0x3d3ca8c8	0.0460594
14	0x3bab8c68	0.0052352436
15	0x3d9f84ac	0.07788977
16	0x3d935c0a	0.071952894
17	0x3dc688c9	0.096940584
18	0x3c1922fa	0.009346718
19	0x3ca9aaf7	0.020711405
20	0x3d7c5ca2	0.06161178
21	0x3c97975b	0.01850479
22	0x3d9064e1	0.07050491
23	0x3da5873e	0.08082436
24	0x3dba1999	0.090869136
25	0x3cc79782	0.024364237
26	0x3d40da5a	0.047083236
27	0x3bc407e5	0.0059823864
28	0x3cc474e0	0.023981512
29	0x3d2c986d	0.042137552
30	0x3cfeb588	0.03109242
31	0x3d445584	0.047933117
32	0xbd714996	-0.058908068
33	0x3cf60a62	0.030034248
34	0x3da33383	0.079688095
35	0x3bba872b	0.005692383
36	0x3da1f7f2	0.0790862
37	0x3da6bc59	0.08141393
38	0x3d68f820	0.056877255
39	0x3d973400	0.07382965
40	0x3c5db664	0.013532255
41	0x3cdc7558	0.026911423
42	0x3d40c682	0.04706431
43	0x3d82da3e	0.06389283
44	0x3c33273b	0.010934646
45	0x3ca23f52	0.019805584
46	0x3d399642	0.045309313
47	0x3d130526	0.03589358
48	0x3d8c677c	0.068556756
49	0x3da68a4d	0.081318475
50	0x3d87e6b0	0.06635797
51	0x3d58cd32	0.052930064
52	0x3d36d4b9	0.044636462
53	0x3d3ae543	0.045628797
54	0x3d0f067f	0.034918305
55	0x3d3c60ce	0.045990758
56	0x3d923682	0.07139303
57	0x3d172dc3	0.036908876
58	0x3d58cef4	0.05293174
59	0x3d73906b	0.0594639
60	0x3d5fc02c	0.05462663
61	0x3d08b634	0.033376887
62	0x3d382e2f	0.04496592
63	0x3d6ef847	0.058342244
64	0x3d632a3e	0.055460207
65	0x3dae6edb	0.08517238
66	0x3cf42de2	0.029807035
67	0x3d656c62	0.056011565
68	0x3cdbd251	0.026833685
69	0x3d01ffee	0.031738214
70	0x3d7ac6d3	0.06122477
71	0x3d1d789f	0.03844511
72	0x3c7faeb7	0.01560562
73	0x3d9da8ad	0.07698188
74	0x3a9a7115	0.0011782969
75	0x3c572927	0.01313237
76	0x3cf42e6d	0.029807294
77	0x39229ae6	0.00015507228
78	0x3d0f8bc1	0.03504539
79	0x3c85a568	0.016314223
80	0x3da1da8f	0.07903015
81	0x3d15e645	0.036596555
82	0x3d8eca21	0.06972147
83	0x3cb45375	0.022012452
84	0x3d903cf7	0.07042878
85	0x3d8b2fb9	0.06796212
86	0x3d7ab79b	0.061210256
87	0x3cc4c238	0.024018392
88	0x3bdb1da8	0.006686885
89	0x3d8f8cca	0.07009275
90	0x3d40b895	0.04705103
91	0x3d668d74	0.056287244
92	0x3d898184	0.06714156
93	0x3d04755c	0.032338485
94	0x3cded021	0.027198853
95	0x3ce52220	0.027970374
96	0x3d853695	0.06504551
97	0x3d9162b5	0.07098905
98	0x3dc58c32	0.09645881
99	0x3d9e6153	0.07733407
100	0x3d6fd9b8	0.058557242
101	0x3d8e156b	0.06937679
102	0x3d641694	0.055685595
103	0x3caecec4	0.021338828
104	0x3d3ab83c	0.045585856
105	0x3d1f9128	0.03895679
106	0x3d81a824	0.063308984
107	0x3d904169	0.07043726
108	0x3d8c4b5f	0.068503134
109	0x3cf88bbe	0.030340072
110	0x3db3296c	0.08748135
111	0x3d85a608	0.065258086
112	0x3da6fbb3	0.081534766
113	0x3c9fc34c	0.019502304
114	0x3d539281	0.05165339
115	0x3d204e71	0.039137308
116	0x3d24af6e	0.040206365
117	0x3c8d4ca3	0.017248457
118	0x3d0f27e5	0.034950156
119	0x3d48a171	0.048982088
120	0x3d92c778	0.07166952
121	0x3d66e242	0.05636812
122	0x3d54506e	0.051834516
123	0x3d9c9e9a	0.07647438
124	0x3d9030f1	0.07040585
125	0x3d2916a9	0.041281376
126	0x3d9edf75	0.07757465
127	0x3d38fd7f	0.045163628

decoder.weight f4 [384, 128]
0	0x3c5a9f62	0.013343664
1	0xbd2d2ec9	-0.042280946
2	0xbd2b14fc	-0.04176806
3	0x3d5e00a0	0.054199815
4	0x3db3fb5d	0.08788178
5	0x3d8b6da0	0.06808019
6	0x3dd99c94	0.10625568
7	0x3cf8946a	0.030344207
8	0xbcdfd213	-0.02732185
9	0xbdb5fdb6	-0.08886282
10	0x3daea07b	0.08526703
11	0x3dad3ed5	0.0845925
12	0x3d48004e	0.048828416
13	0x3d41b980	0.047296047
14	0x3af4c132	0.0018673299
15	0xbd1303b1	-0.035892192
16	0x3d9730e7	0.07382374
17	0xbdf45f45	-0.11932234
18	0x3d9bf249	0.076145716
19	0x3dc3b259	0.095555015
20	0x3d37d0ed	0.04487698
21	0x3dfda9f5	0.12385932
22	0xbe0394b3	-0.12849693
23	0xbd2fcbe5	-0.04291906
24	0xbd9d1444	-0.07669881
25	0x3dce6938	0.10078663
26	0xbddca71a	-0.107740596
27	0x3d920443	0.07129719
28	0x3d875404	0.066078216
29	0xbc607988	-0.01370085
30	0xbd58fcdc	-0.05297552
31	0xbd5a3325	-0.05327143
32	0x3d751be2	0.059841044
33	0xbcbff0da	-0.023430277
34	0x3cb9810f	0.022644548
35	0x3d555bf3	0.052089643
36	0xbd89cd2f	-0.06728589
37	0xbd46afd2	-0.04850752
38	0xbc26a241	-0.01017052
39	0x3d91a68d	0.07111845
40	0x3e087b31	0.13328244
41	0x3d1a7174	0.037705854
42	0x3d861cd5	0.06548468
43	0x3cf5c8c4	0.03000296
44	0xbdcf9a13	-0.10136809
45	0xbd8d16fa	-0.06889148
46	0xbc929182	-0.01789165
47	0x3c977ae1	0.01849121
48	0xbd7dd6e3	-0.06197251
49	0xbc21ff08	-0.009887464
50	0xbdb2bb71	-0.08727158
51	0xbbccd0fa	-0.006250498
52	0xbab06c0d	-0.0013459936
53	0x3d544e27	0.051832344
54	0xbb109830	-0.0022063367
55	0x3dda6f66	0.10665779
56	0xbdc748a4	-0.09730652
57	0x3d8212c8	0.063512385
58	0xbcdfd599	-0.027323531
59	0x3c9f3447	0.019434107
60	0xbd7e13a8	-0.062030464
61	0x3d1bdcc8	0.03805235
62	0x3d89fef5	0.06738082
63	0xbb45cf4b	-0.003018337
64	0x3d730ceb	0.05933849
65	0x3d3a0d1d	0.045422662
66	0xbe15fa03	-0.14646153
67	0xbcd9923a	-0.026558984
68	0x3db6695c	0.089068145
69	0x3ca00127	0.0195318
70	0x3d6a7bc6	0.057246946
71	0xbd4d4244	-0.050112024
72	0x3dcdde94	0.10052219
73	0x3cbee047	0.023300303
74	0x3c03d76a	0.008046964
75	0xbdf29289	-0.118443556
76	0xbd008ab6	-0.031382285
77	0x3dc51195	0.09622494
78	0xbe30374b	-0.17208593
79	0xbce2ed46	-0.027701031
80	0xbd04f220	-0.03245747
81	0x3dde5d31	0.108576186
82	0xbda45041	-0.0802312
83	0xbc3adb31	-0.011404798
84	0x3dc18dd5	0.094508804
85	0xbd88e3bc	-0.06684062
86	0xbbe25ea4	-0.0069082547
87	0xbd4c0434	-0.049808696
88	0xbd2d5f1d	-0.042327035
89	0x3b8c33ec	0.0042786505
90	0xbc0279e7	-0.007963634
91	0xbd622707	-0.055213
92	0x3e263318	0.16230428
93	0xbd8ec84f	-0.069717996
94	0x3d3d8c5d	0.04627644
95	0xbc170d15	-0.009219428
96	0x3cdf3efa	0.02725171
97	0x3bbf0ca2	0.0058303634
98	0x3dbe3cfa	0.09288974
99	0xbd2d6339	-0.042330954
100	0xbdb92570	-0.09040344
101	0xbd645203	-0.055742275
102	0xbcbb0e74	-0.02283404
103	0x3da2880f	0.07936107
104	0xbd786d97	-0.060651388
105	0xbe4219ee	-0.18955204
106	0x3d03ee7e	0.032209866
107	0xbb5eb120	-0.0033980086
108	0xbd15aa00	-0.036539078
109	0xbc36b594	-0.01115169
110	0xbc5fa75f	-0.013650744
111	0xbdb0be7d	-0.08630083
112	0x3a004e11	0.00048944453
113	0x3d93bd49	0.07213838
114	0xbd51ba97	-0.051203337
115	0xbcd5396b	-0.026028356
116	0x3d258949	0.04041413
117	0xbd1285d1	-0.03577215
118	0xbe256f23	-0.16155677
119	0xbd47fbf5	-0.04882427
120	0x3cbab38f	0.022790698
121	0x3ca77a04	0.020443924
122	0xbd4cf8a5	-0.050041813
123	0xbe0f6c4a	-0.14006153
124	0x3ce1706a	0.027519424
125	0xbd3558ea	-0.04427425
126	0x3cf53a2a	0.029934961
127	0x3d179d7e	0.03701543
128	0xbd813cf6	-0.063104555
129	0x3d3c18e1	0.045922164
130	0x3dbae193	0.09125056
131	0xbd61de85	-0.05514385
132	0x3e06e4c9	0.13173212
133	0x3d894042	0.06701709
134	0x3da811a1	0.082064874
135	0xbd835389	-0.064124174
136	0x3da56e60	0.08077693
137	0x3d3c12af	0.045916256
138	0x3c5c2a0c	0.013437759
139	0xbd4dbeba	-0.05023072
140	0x3e111884	0.14169508
141	0xbdd675ae	-0.10471664
142	0xbdb677b9	-0.08909554
143	0xbd009cb8	-0.03139946
144	0xbc249e2b	-0.010047476
145	0x3c249517	0.010045311
146	0xbd60f3af	-0.054919895
147	0x3d1ca7de	0.038246028
148	0xbcb84fb1	-0.022498937
149	0xbc98b28f	-0.01863983
150	0x3d612214	0.05496414
151	0x3da07d93	0.078364514
152	0xbdbc4985	-0.0919371
153	0xbcc8c8f8	-0.024509892
154	0x3d1fdf09	0.039031062
155	0xbe3717cc	-0.17880172
156	0x3df65309	0.120275564
157	0x3d6f0f36	0.058364116
158	0xbdec5ae6	-0.11540775
159	0xbd62d26f	-0.055376466
160	0x3c2d054b	0.010560344
161	0xbc86cb98	-0.016454503
162	0xbe11b347	-0.14228545
163	0x3cde0712	0.02710298
164	0x36835350	3.913803e-06
165	0xbd8f7cc8	-0.07006222
166	0xbdede48c	-0.116158575
167	0xbc76aec4	-0.015056316
168	0xbdc4d855	-0.096115746
169	0xbdfd7800	-0.12376404
170	0xbc8dbb26	-0.017301153
171	0xbbfb0e7f	-0.00766164
172	0xbd43f5ce	-0.04784184
173	0x3d899f0c	0.06719789
174	0x3d8151d4	0.063144356
175	0xbcf15a63	-0.029462045
176	0xbc8a2553	-0.0168635
177	0xbd802033	-0.062561415
178	0xbd256fab	-0.040389698
179	0x3da6d1dd	0.08145497
180	0xbd5963ec	-0.05307381
181	0x3d775d76	0.060391866
182	0xbd8bd130	-0.06827009
183	0x3dcf7c02	0.101310745
184	0x3cf7ee7a	0.030265082
185	0xbd96d14f	-0.07364141
186	0xbb6b6cc1	-0.0035922977
187	0x3e097fb1	0.13427617
188	0xbd964555	-0.07337443
189	0xbdb3d57e	-0.08780955
190	0x3d841972	0.06450166
191	0x3d5cc446	0.05389812
192	0x3d647d2c	0.055783436
193	0x3cef1fc1	0.029189946
194	0x39ed0844	0.0004521032
195	0x3da1d27a	0.07901473
196	0xbd02acd0	-0.031903088
197	0xbca895fa	-0.020579327
198	0xbdc3287f	-0.095292084
199	0x3dac6436	0.08417551
200	0x3c218ce2	0.009860249
201	0xbd2cea99	-0.042215917
202	0x3d3fca70	0.04682392
203	0xbc151501	-0.009099246
204	0x3d52ba77	0.051447358
205	0x3d90033b	0.07031866
206	0xbdc0d4d6	-0.09415595
207	0x3d90da17	0.07072847
208	0xbd70a6a6	-0.05875268
209	0x3d2e103e	0.04249596
210	0xbc127c84	-0.00894082
211	0xbd5d7366	-0.05406513
212	0x3c7cfcd0	0.015441135
213	0xbd9b02ec	-0.07568917
214	0xbd1afc36	-0.037838183
215	0xbc31ca7c	-0.010851499
216	0x3e0167f7	0.12637316
217	0x3c2e0d19	0.01062324
218	0xbda2088a	-0.07911785
219	0xbd839700	-0.06425285
220	0xbd34a126	-0.044098996
221	0xbdf8071d	-0.12110732
222	0xbc8b431f	-0.01699978
223	0xbcc38b1e	-0.023870047
224	0xbe04b9a7	-0.12961446
225	0x3daf2584	0.085520774
226	0xbda51d96	-0.08062284
227	0x3d5a9337	0.05336305
228	0x3d723b55	0.059138615
229	0x3abafbf8	0.0014265766
230	0x3b48226b	0.0030538093
231	0xbc949f05	-0.018142233
232	0x3d0cf0da	0.03440938
233	0x3d38149d	0.044941533
234	0xbd5e6468	-0.054294974
235	0x3ca0b881	0.019619228
236	0x3ba90f5b	0.005159301
237	0xbd9ff4fb	-0.07810398
238	0xbd23f8b1	-0.040032092
239	0x3d5c4f8e	0.053786807
240	0x3e036cc7	0.12834464
241	0xb7836f29	-1.566818e-05
242	0xbd99f52a	-0.075174645
243	0x3d29c9bb	0.04145215
244	0xbd3348a7	-0.04377046
245	0x3b8497a1	0.004046396
246	0xbd862cca	-0.065515116
247	0x3d5bda00	0.053674698
248	0x3d0019e2	0.031274684
249	0x3d93ccc6	0.07216792
250	0x3dc12301	0.094305046
251	0xbda1ffb6	-0.07910101
252	0x3ac1f64a	0.0014798131
253	0x3ce9722d	0.028496826
254	0xbd01ded5	-0.03170665
255	0xbc88b34d	-0.01668706

decoder.bias f4 [384]
0	0x3d415fe5	0.047210593
1	0x3d158d96	0.03651198
2	0x3d55710d	0.052109767
3	0x3d0aa79a	0.033851244
4	0x3d3efab7	0.04662582
5	0x3b905b85	0.004405441
6	0xbcee0cba	-0.029058803
7	0x3d16d264	0.036821738
8	0xbd00dcbd	-0.031460512
9	0x3d839c23	0.06426265
10	0x3d45452e	0.048161678
11	0x3cbdc491	0.02316502
12	0xbd8a0ea3	-0.06741073
13	0x3d1332c0	0.03593707
14	0xbbf892f8	-0.0075858794
15	0x3d1bfcab	0.03808276
16	0x3c9ca968	0.019123748
17	0x3d42135d	0.047381748
18	0xbd867da0	-0.0656693
19	0x3d88c29f	0.06677746
20	0xbd043d64	-0.03228511
21	0xbc35853f	-0.011079132
22	0x3d629fbb	0.055328112
23	0xbc6e6de6	-0.014552569
24	0xbd1b1125	-0.037858147
25	0x3d382975	0.04496141
26	0x3d2958af	0.04134434
27	0xbd0cc96a	-0.03437177
28	0x3c13374b	0.008985351
29	0x3d606fbb	0.054794054
30	0x3d4783dd	0.04870974
31	0x3d2baa9d	0.041910756
32	0xbd369dd4	-0.04458411
33	0xbbee748c	-0.007277077
34	0x3ce84555	0.028353373
35	0xbd867cf0	-0.06566799
36	0x3d1d4bc3	0.03840233
37	0x3d3f18c3	0.046654474
38	0xbd58c32b	-0.0529205
39	0xbd47ef07	-0.04881194
40	0x3c83c52d	0.016085232
41	0x3d69925c	0.057024345
42	0xbd815e50	-0.06316817
43	0x3d7eac4c	0.062176034
44	0x3bcef207	0.006315473
45	0x3d5165c8	0.051122457
46	0xbd059173	-0.032609414
47	0x3beab2e3	0.0071624382
48	0x3c8005c2	0.015627746
49	0x3cc5bf16	0.024138968
50	0xbd975994	-0.073901325
51	0xbd880d6f	-0.06643187
52	0x3cce1c84	0.025160082
53	0xbd852ba3	-0.06502464
54	0x3b151cb2	0.00227527
55	0xbd147d98	-0.036252588
56	0xbc84906d	-0.016182149
57	0xbcc97571	-0.024592133
58	0x3d39a172	0.045319982
59	0xbd83c2e1	-0.064336546
60	0xbc724c65	-0.014788722
61	0xbd44f1ea	-0.04808227
62	0x3d31732b	0.043322723
63	0x3c83c0df	0.016083179
64	0xbd1a76c0	-0.037710905
65	0xbb8d8a4b	-0.0043194643
66	0xbd257a9f	-0.040400144
67	0x3d21d0f0	0.0395059
68	0xbd40e6c4	-0.047095075
69	0x3d2ec822	0.04267133
70	0x3d806a48	0.062702715
71	0x3c43ee7b	0.011958714
72	0x3d133aab	0.035944622
73	0x3b74eec7	0.0037373768
74	0xbd11496a	-0.035470404
75	0xbb83756f	-0.004011802
76	0xbd112cfc	-0.03544329
77	0xbd3c563e	-0.045980684
78	0x3ad23020	0.0016036071
79	0xbc8d4522	-0.01724488
80	0xbc5dab6c	-0.01352964
81	0x3cf75173	0.030190205
82	0xbd30d2ec	-0.0431699
83	0x3be50817	0.00698949
84	0xbc46c0ee	-0.012130959
85	0xbb934b4e	-0.004495061
86	0xbd5cf1bd	-0.053941477
87	0xbcf374ec	-0.029718839
88	0xbcd37e6a	-0.025817115
89	0x3cd4553d	0.025919551
90	0x3cfa13fb	0.030527106
91	0x3d386157	0.045014706
92	0x3c2db124	0.010601316
93	0xbd7cbf46	-0.06170585
94	0xbcf22632	-0.029559229
95	0xbc50564c	-0.012715887
96	0xbd46a413	-0.048496317
97	0x3d2304af	0.03979939
98	0xbb6e615b	-0.0036373946
99	0xbcb06428	-0.021532133
100	0x3c44ff60	0.012023777
101	0x3c6e6686	0.014550811
102	0x3cd45413	0.025918996
103	0x3d7c00cb	0.061524194
104	0x3d6ec4e8	0.058293253
105	0x3d0549b6	0.032541
106	0xbd49046f	-0.049076494
107	0xbca4ff18	-0.02014117
108	0xbd53e42b	-0.05173127
109	0xbd4e19b1	-0.05031747
110	0x3ca284e3	0.019838756
111	0x3d49d6ca	0.049277104
112	0xbd82b5f9	-0.06382365
113	0x3bd23d1b	0.0064159757
114	0xbd4e8482	-0.050419338
115	0xbba44c45	-0.005013975
116	0x3d8f76a3	0.0700505
117	0xbd3b5870	-0.045738637
118	0x3c9f6ada	0.01946013
119	0xbcc4b478	-0.024011835
120	0xbd6b0809	-0.05738071
121	0xbd47fcd2	-0.048825093
122	0x3d16e9d2	0.036844082
123	0x3ca01ae9	0.019544082
124	0x3d1b4ef0	0.037917078
125	0xbccd9574	-0.025095679
126	0xbcec3696	-0.028834622
127	0xbca6db8d	-0.020368362
128	0x3cca7f72	0.024718974
129	0xbc639982	-0.01389158
130	0xbc6be2ef	-0.014397367
131	0xbd801756	-0.06254451
132	0x3cfc29dc	0.030781679
133	0xbd5feb5a	-0.054667808
134	0x3a5e1513	0.0008471768
135	0x3ce0e7da	0.027454305
136	0x3d4f7982	0.05065299
137	0xbb9f6d8c	-0.004865354
138	0xbd59a48b	-0.053135436
139	0xbc61a352	-0.013771849
140	0x3d02b4ec	0.03191082
141	0xbc7ef57b	-0.015561457
142	0x3b821e10	0.003970869
143	0xbd36914e	-0.044572167
144	0x3d5d257e	0.053990833
145	0xbd29e2bb	-0.041475993
146	0x3cd510c0	0.026008964
147	0x3d07b13f	0.03312802
148	0x3d06416a	0.032777227
149	0xbc83bd8f	-0.0160816
150	0x3cbefb96	0.023313325
151	0x3cb95044	0.022621281
152	0xbbfd2f9e	-0.0077266237
153	0xbd4989c4	-0.04920365
154	0xbd394922	-0.04523576
155	0x3d2f3905	0.042778987
156	0xbc41f48b	-0.011838089
157	0xbc8bef3e	-0.017081853
158	0xbd0589fa	-0.032602288
159	0x3d8078e1	0.06273056
160	0x3cead91a	0.028667975
161	0x3d1e6947	0.03867462
162	0xbccb6932	-0.024830434
163	0xbd239ac6	-0.039942525
164	0x3d3b944b	0.04579572
165	0x3d35d828	0.044395596
166	0x3c165b1f	0.009176998
167	0x3c32a7b5	0.010904242
168	0xbbbff10e	-0.0058575934
169	0x3c1fc79c	0.00975218
170	0xbd1ac06d	-0.037781168
171	0x3ccb709a	0.024833966
172	0x3d800c16	0.06252305
173	0x3bef27fc	0.0072984677
174	0xbbea515f	-0.0071508135
175	0x3c929c71	0.017896863
176	0x3afa743c	0.0019108127
177	0xbd4e8b6f	-0.050425943
178	0x3c125014	0.008930225
179	0x3c93dc88	0.018049493
180	0xbc3b2bd4	-0.011424024
181	0x3d505de3	0.050870787
182	0x3c93a73b	0.018024078
183	0x3befc1fe	0.007316827
184	0xbc5fb052	-0.013652878
185	0xbd1cc935	-0.038277823
186	0x3d4f9ad1	0.050684754
187	0x3a126da9	0.00055857986
188	0xbd261246	-0.04054477
189	0x3c1f7763	0.009733054
190	0xbc68494e	-0.014177633
191	0x3d826e96	0.06368749
192	0x3b21073d	0.0024570965
193	0xbd2971f1	-0.04136843
194	0xbd1960e4	-0.037445918
195	0x3c04b01d	0.008098629
196	0xbd027594	-0.031850412
197	0xbce539ff	-0.027981756
198	0xbcb79da3	-0.022414034
199	0x3cb0a502	0.021563057
200	0x3d4c453d	0.04987072
201	0x3d14122a	0.036150135
202	0x3d3aa7af	0.04557007
203	0x3c0b1837	0.00848966
204	0xbc2761a0	-0.010216147
205	0xbd1f3e3e	-0.03887772
206	0xbd96d3d3	-0.07364621
207	0x3cfc4b56	0.030797642
208	0xbbc79467	-0.006090689
209	0x3c9a6648	0.0188476
210	0xbc64ac8b	-0.013957153
211	0x3d004b0a	0.031321563
212	0xbc706a8c	-0.01467384
213	0xbd597253	-0.053087544
214	0x3d35f2e7	0.044421103
215	0xbb62434a	-0.003452497
216	0x3c828c31	0.01593599
217	0xbca6b27d	-0.020348782
218	0xbb37e330	-0.0028058998
219	0x3d607e96	0.05480822
220	0xbd41cd24	-0.047314778
221	0xbd947b50	-0.072500825
222	0x3d4b3b86	0.049617313
223	0x3d0bfb6d	0.034175325
224	0x3ce4a6ef	0.027911631
225	0xbcd683bb	-0.02618586
226	0x3c85104d	0.016243124
227	0x3d277c35	0.040889937
228	0x3d6636c0	0.056204557
229	0xbd075bc2	-0.03304649
230	0x3d083c77	0.03326079
231	0xbd5782a9	-0.05261484
232	0x3d33d674	0.04390569
233	0xbd121269	-0.03566209
234	0xbd904d3b	-0.070459805
235	0xbd4efe3a	-0.050535418
236	0x3bc43154	0.0059873257
237	0xbcd34749	-0.025790827
238	0xbc419d9c	-0.011817362
239	0x3c33d4bd	0.010976014
240	0xbd7890ec	-0.060685083
241	0xbad51670	-0.0016257297
242	0x3d5e1183	0.05421592
243	0xbc524a3c	-0.012835082
244	0xbd497786	-0.049186252
245	0x3d6dd9b5	0.05806895
246	0x3d54d0b1	0.051956836
247	0xbd52d833	-0.051475715
248	0x3cfea06a	0.03108235
249	0xbacac0e8	-0.0015468867
250	0x3d778d7b	0.06043766
251	0x3d621ca1	0.055203084
252	0xbd67de14	-0.056608275
253	0x3c9e4748	0.019321099
254	0xbcb1af91	-0.021690162
255	0x3cf4fc2b	0.0299054
